{"format": "layers-model", "generatedBy": "keras v2.2.4-tf", "convertedBy": "TensorFlow.js Converter v1.3.2", "modelTopology": {"keras_version": "2.2.4-tf", "backend": "tensorflow", "model_config": {"class_name": "Sequential", "config": {"name": "sequential", "layers": [{"class_name": "DenseFeatures", "config": {"name": "dense_features", "trainable": true, "dtype": "int32", "feature_columns": [{"class_name": "NumericColumn", "config": {"key": "age", "shape": [1], "default_value": null, "dtype": "float32", "normalizer_fn": null}}, {"class_name": "BucketizedColumn", "config": {"source_column": {"class_name": "NumericColumn", "config": {"key": "age", "shape": [1], "default_value": null, "dtype": "float32", "normalizer_fn": null}}, "boundaries": [18, 25, 30, 35, 40, 45, 50, 55, 60, 65]}}, {"class_name": "IndicatorColumn", "config": {"categorical_column": {"class_name": "CrossedColumn", "config": {"keys": [{"class_name": "BucketizedColumn", "config": {"source_column": {"class_name": "NumericColumn", "config": {"key": "age", "shape": [1], "default_value": null, "dtype": "float32", "normalizer_fn": null}}, "boundaries": [18, 25, 30, 35, 40, 45, 50, 55, 60, 65]}}, {"class_name": "VocabularyListCategoricalColumn", "config": {"key": "occupation", "vocabulary_list": ["Prof-specialty", "Craft-repair", "Exec-managerial", "Adm-clerical", "Sales", "Other-service", "Machine-op-inspct", "?", "Transport-moving", "Handlers-cleaners", "Farming-fishing", "Tech-support", "Protective-serv", "Priv-house-serv", "Armed-Forces"], "dtype": "string", "default_value": -1, "num_oov_buckets": 0}}], "hash_bucket_size": 1000, "hash_key": null}}}}, {"class_name": "NumericColumn", "config": {"key": "capital-gain", "shape": [1], "default_value": null, "dtype": "float32", "normalizer_fn": null}}, {"class_name": "NumericColumn", "config": {"key": "capital-loss", "shape": [1], "default_value": null, "dtype": "float32", "normalizer_fn": null}}, {"class_name": "NumericColumn", "config": {"key": "education-num", "shape": [1], "default_value": null, "dtype": "float32", "normalizer_fn": null}}, {"class_name": "IndicatorColumn", "config": {"categorical_column": {"class_name": "VocabularyListCategoricalColumn", "config": {"key": "education", "vocabulary_list": ["HS-grad", "Some-college", "Bachelors", "Masters", "Assoc-voc", "11th", "Assoc-acdm", "10th", "7th-8th", "Prof-school", "9th", "12th", "Doctorate", "5th-6th", "1st-4th", "Preschool"], "dtype": "string", "default_value": -1, "num_oov_buckets": 0}}}}, {"class_name": "NumericColumn", "config": {"key": "fnlwgt", "shape": [1], "default_value": null, "dtype": "float32", "normalizer_fn": null}}, {"class_name": "NumericColumn", "config": {"key": "hours-per-week", "shape": [1], "default_value": null, "dtype": "float32", "normalizer_fn": null}}, {"class_name": "IndicatorColumn", "config": {"categorical_column": {"class_name": "VocabularyListCategoricalColumn", "config": {"key": "marital-status", "vocabulary_list": ["Married-civ-spouse", "Never-married", "Divorced", "Separated", "Widowed", "Married-spouse-absent", "Married-AF-spouse"], "dtype": "string", "default_value": -1, "num_oov_buckets": 0}}}}, {"class_name": "EmbeddingColumn", "config": {"categorical_column": {"class_name": "VocabularyListCategoricalColumn", "config": {"key": "occupation", "vocabulary_list": ["Prof-specialty", "Craft-repair", "Exec-managerial", "Adm-clerical", "Sales", "Other-service", "Machine-op-inspct", "?", "Transport-moving", "Handlers-cleaners", "Farming-fishing", "Tech-support", "Protective-serv", "Priv-house-serv", "Armed-Forces"], "dtype": "string", "default_value": -1, "num_oov_buckets": 0}}, "dimension": 8, "combiner": "mean", "initializer": {"class_name": "TruncatedNormal", "config": {"mean": 0.0, "stddev": 0.35355339059327373, "seed": null, "dtype": "float32"}}, "ckpt_to_load_from": null, "tensor_name_in_ckpt": null, "max_norm": null, "trainable": true}}, {"class_name": "IndicatorColumn", "config": {"categorical_column": {"class_name": "VocabularyListCategoricalColumn", "config": {"key": "occupation", "vocabulary_list": ["Prof-specialty", "Craft-repair", "Exec-managerial", "Adm-clerical", "Sales", "Other-service", "Machine-op-inspct", "?", "Transport-moving", "Handlers-cleaners", "Farming-fishing", "Tech-support", "Protective-serv", "Priv-house-serv", "Armed-Forces"], "dtype": "string", "default_value": -1, "num_oov_buckets": 0}}}}, {"class_name": "IndicatorColumn", "config": {"categorical_column": {"class_name": "VocabularyListCategoricalColumn", "config": {"key": "race", "vocabulary_list": ["White", "Black", "Asian-Pac-Islander", "Amer-Indian-Eskimo", "Other"], "dtype": "string", "default_value": -1, "num_oov_buckets": 0}}}}, {"class_name": "IndicatorColumn", "config": {"categorical_column": {"class_name": "VocabularyListCategoricalColumn", "config": {"key": "relationship", "vocabulary_list": ["Husband", "Not-in-family", "Own-child", "Unmarried", "Wife", "Other-relative"], "dtype": "string", "default_value": -1, "num_oov_buckets": 0}}}}, {"class_name": "IndicatorColumn", "config": {"categorical_column": {"class_name": "VocabularyListCategoricalColumn", "config": {"key": "sex", "vocabulary_list": ["Male", "Female"], "dtype": "string", "default_value": -1, "num_oov_buckets": 0}}}}, {"class_name": "IndicatorColumn", "config": {"categorical_column": {"class_name": "VocabularyListCategoricalColumn", "config": {"key": "workclass", "vocabulary_list": ["Private", "Self-emp-not-inc", "Local-gov", "?", "State-gov", "Self-emp-inc", "Federal-gov", "Without-pay", "Never-worked"], "dtype": "string", "default_value": -1, "num_oov_buckets": 0}}}}]}}, {"class_name": "Dense", "config": {"name": "dense", "trainable": true, "dtype": "float32", "units": 128, "activation": "relu", "use_bias": true, "kernel_initializer": {"class_name": "GlorotUniform", "config": {"seed": null, "dtype": "float32"}}, "bias_initializer": {"class_name": "Zeros", "config": {"dtype": "float32"}}, "kernel_regularizer": null, "bias_regularizer": null, "activity_regularizer": null, "kernel_constraint": null, "bias_constraint": null}}, {"class_name": "Dense", "config": {"name": "dense_1", "trainable": true, "dtype": "float32", "units": 128, "activation": "relu", "use_bias": true, "kernel_initializer": {"class_name": "GlorotUniform", "config": {"seed": null, "dtype": "float32"}}, "bias_initializer": {"class_name": "Zeros", "config": {"dtype": "float32"}}, "kernel_regularizer": null, "bias_regularizer": null, "activity_regularizer": null, "kernel_constraint": null, "bias_constraint": null}}, {"class_name": "Dense", "config": {"name": "dense_2", "trainable": true, "dtype": "float32", "units": 1, "activation": "sigmoid", "use_bias": true, "kernel_initializer": {"class_name": "GlorotUniform", "config": {"seed": null, "dtype": "float32"}}, "bias_initializer": {"class_name": "Zeros", "config": {"dtype": "float32"}}, "kernel_regularizer": null, "bias_regularizer": null, "activity_regularizer": null, "kernel_constraint": null, "bias_constraint": null}}], "build_input_shape": [null]}}, "training_config": {"loss": "binary_crossentropy", "metrics": ["accuracy"], "weighted_metrics": null, "sample_weight_mode": null, "loss_weights": null, "optimizer_config": {"class_name": "Adam", "config": {"name": "Adam", "learning_rate": 0.0010000000474974513, "decay": 0.0, "beta_1": 0.8999999761581421, "beta_2": 0.9990000128746033, "epsilon": 1e-07, "amsgrad": false}}}}, "weightsManifest": [{"paths": ["group1-shard1of1.bin"], "weights": [{"name": "sequential/dense/kernel", "shape": [1085, 128], "dtype": "float32"}, {"name": "sequential/dense/bias", "shape": [128], "dtype": "float32"}, {"name": "sequential/dense_1/kernel", "shape": [128, 128], "dtype": "float32"}, {"name": "sequential/dense_1/bias", "shape": [128], "dtype": "float32"}, {"name": "sequential/dense_2/kernel", "shape": [128, 1], "dtype": "float32"}, {"name": "sequential/dense_2/bias", "shape": [1], "dtype": "float32"}, {"name": "dense_features/occupation_embedding/embedding_weights", "shape": [15, 8], "dtype": "float32"}]}]}